…
I1114 10:37:33.730043 12874 net.cpp:294] The NetState phase (0) differed from the phase (1) specified by a rule in layer input_data
I1114 10:37:33.730188 12874 net.cpp:51] Initializing net from parameters: 
name: "TestNet"
state {
  phase: TRAIN
  level: 0
  stage: ""
}
layer {
  name: "input_data"
  type: "ImageData"
  top: "data"
  top: "label"
  include {
    phase: TRAIN
  }
  image_data_param {
    source: "/data6/wanghao/pattern_recognition_project/list/train/list_train_label_augmentation_full.txt"
    batch_size: 16
    shuffle: true
    new_height: 227
    new_width: 227
  }
}
layer {
  name: "conv1"
  type: "Convolution"
  bottom: "data"
  top: "conv1"
  param {
    lr_mult: 1
    decay_mult: 1
  }
  param {
    lr_mult: 2
    decay_mult: 0
  }
  convolution_param {
    num_output: 96
    kernel_size: 11
    stride: 4
    weight_filler {
      type: "gaussian"
      std: 0.01
    }
    bias_filler {
      type: "constant"
      value: 0
    }
  }
}
layer {
  name: "relu1"
  type: "ReLU"
  bottom: "conv1"
  top: "conv1"
}
layer {
  name: "norm1"
  type: "LRN"
  bottom: "conv1"
  top: "norm1"
  lrn_param {
    local_size: 5
    alpha: 0.0001
    beta: 0.75
  }
}
layer {
  name: "pool1"
  type: "Pooling"
  bottom: "norm1"
  top: "pool1"
  pooling_param {
    pool: MAX
    kernel_size: 3
    stride: 2
  }
}
layer {
  name: "conv2"
  type: "Convolution"
  bottom: "pool1"
  top: "conv2"
  param {
    lr_mult: 1
    decay_mult: 1
  }
  param {
    lr_mult: 2
    decay_mult: 0
  }
  convolution_param {
    num_output: 256
    pad: 2
    kernel_size: 5
    group: 2
    weight_filler {
      type: "gaussian"
      std: 0.01
    }
    bias_filler {
      type: "constant"
      value: 0.1
    }
  }
}
layer {
  name: "relu2"
  type: "ReLU"
  bottom: "conv2"
  top: "conv2"
}
layer {
  name: "norm2"
  type: "LRN"
  bottom: "conv2"
  top: "norm2"
  lrn_param {
    local_size: 5
    alpha: 0.0001
    beta: 0.75
  }
}
layer {
  name: "pool2"
  type: "Pooling"
  bottom: "norm2"
  top: "pool2"
  pooling_param {
    pool: MAX
    kernel_size: 3
    stride: 2
  }
}
layer {
  name: "conv3"
  type: "Convolution"
  bottom: "pool2"
  top: "conv3"
  param {
    lr_mult: 1
    decay_mult: 1
  }
  param {
    lr_mult: 2
    decay_mult: 0
  }
  convolution_param {
    num_output: 384
    pad: 1
    kernel_size: 3
    weight_filler {
      type: "gaussian"
      std: 0.01
    }
    bias_filler {
      type: "constant"
      value: 0
    }
  }
}
layer {
  name: "relu3"
  type: "ReLU"
  bottom: "conv3"
  top: "conv3"
}
layer {
  name: "pool3"
  type: "Pooling"
  bottom: "conv3"
  top: "pool3"
  pooling_param {
    pool: MAX
    kernel_size: 3
    stride: 2
  }
}
layer {
  name: "fc4"
  type: "InnerProduct"
  bottom: "pool3"
  top: "fc4"
  param {
    lr_mult: 1
    decay_mult: 1
  }
  param {
    lr_mult: 2
    decay_mult: 0
  }
  inner_product_param {
    num_output: 4096
    weight_filler {
      type: "gaussian"
      std: 0.005
    }
    bias_filler {
      type: "constant"
      value: 0.1
    }
  }
}
layer {
  name: "relu4"
  type: "ReLU"
  bottom: "fc4"
  top: "fc4"
}
layer {
  name: "drop4"
  type: "Dropout"
  bottom: "fc4"
  top: "fc4"
  dropout_param {
    dropout_ratio: 0.5
  }
}
layer {
  name: "fc5"
  type: "InnerProduct"
  bottom: "fc4"
  top: "fc5"
  param {
    lr_mult: 1
    decay_mult: 1
  }
  param {
    lr_mult: 2
    decay_mult: 0
  }
  inner_product_param {
    num_output: 16384
    weight_filler {
      type: "gaussian"
      std: 0.005
    }
    bias_filler {
      type: "constant"
      value: 0.1
    }
  }
}
layer {
  name: "relu5"
  type: "ReLU"
  bottom: "fc5"
  top: "fc5"
}
layer {
  name: "drop5"
  type: "Dropout"
  bottom: "fc5"
  top: "fc5"
  dropout_param {
    dropout_ratio: 0.5
  }
}
layer {
  name: "fc"
  type: "InnerProduct"
  bottom: "fc5"
  top: "fc"
  param {
    lr_mult: 1
    decay_mult: 1
  }
  param {
    lr_mult: 2
    decay_mult: 0
  }
  inner_product_param {
    num_output: 7
    weight_filler {
      type: "gaussian"
      std: 0.01
    }
    bias_filler {
      type: "constant"
      value: 0
    }
  }
}
layer {
  name: "accuracy"
  type: "Accuracy"
  bottom: "fc"
  bottom: "label"
  top: "accuracy"
}
layer {
  name: "loss"
  type: "SoftmaxWithLoss"
  bottom: "fc"
  bottom: "label"
  top: "loss"
}
I1114 10:37:33.730293 12874 layer_factory.hpp:77] Creating layer input_data
I1114 10:37:33.730325 12874 net.cpp:84] Creating Layer input_data
I1114 10:37:33.730336 12874 net.cpp:380] input_data -> data
I1114 10:37:33.730360 12874 net.cpp:380] input_data -> label
I1114 10:37:33.730381 12874 image_data_layer.cpp:38] Opening file /data6/wanghao/pattern_recognition_project/list/train/list_train_label_augmentation_full.txt
I1114 10:37:33.735059 12874 image_data_layer.cpp:53] Shuffling data
I1114 10:37:33.737357 12874 image_data_layer.cpp:63] A total of 19710 images.
I1114 10:37:34.055078 12874 image_data_layer.cpp:90] output data size: 16,3,227,227
I1114 10:37:34.075942 12874 net.cpp:122] Setting up input_data
I1114 10:37:34.075978 12874 net.cpp:129] Top shape: 16 3 227 227 (2473392)
I1114 10:37:34.075984 12874 net.cpp:129] Top shape: 16 (16)
I1114 10:37:34.075985 12874 net.cpp:137] Memory required for data: 9893632
I1114 10:37:34.075992 12874 layer_factory.hpp:77] Creating layer label_input_data_1_split
I1114 10:37:34.076004 12874 net.cpp:84] Creating Layer label_input_data_1_split
I1114 10:37:34.076009 12874 net.cpp:406] label_input_data_1_split <- label
I1114 10:37:34.076020 12874 net.cpp:380] label_input_data_1_split -> label_input_data_1_split_0
I1114 10:37:34.076035 12874 net.cpp:380] label_input_data_1_split -> label_input_data_1_split_1
I1114 10:37:34.076128 12874 net.cpp:122] Setting up label_input_data_1_split
I1114 10:37:34.076138 12874 net.cpp:129] Top shape: 16 (16)
I1114 10:37:34.076143 12874 net.cpp:129] Top shape: 16 (16)
I1114 10:37:34.076151 12874 net.cpp:137] Memory required for data: 9893760
I1114 10:37:34.076156 12874 layer_factory.hpp:77] Creating layer conv1
I1114 10:37:34.076177 12874 net.cpp:84] Creating Layer conv1
I1114 10:37:34.076184 12874 net.cpp:406] conv1 <- data
I1114 10:37:34.076192 12874 net.cpp:380] conv1 -> conv1
I1114 10:37:34.077982 12874 net.cpp:122] Setting up conv1
I1114 10:37:34.078011 12874 net.cpp:129] Top shape: 16 96 55 55 (4646400)
I1114 10:37:34.078013 12874 net.cpp:137] Memory required for data: 28479360
I1114 10:37:34.078025 12874 layer_factory.hpp:77] Creating layer relu1
I1114 10:37:34.078035 12874 net.cpp:84] Creating Layer relu1
I1114 10:37:34.078038 12874 net.cpp:406] relu1 <- conv1
I1114 10:37:34.078043 12874 net.cpp:367] relu1 -> conv1 (in-place)
I1114 10:37:34.078052 12874 net.cpp:122] Setting up relu1
I1114 10:37:34.078055 12874 net.cpp:129] Top shape: 16 96 55 55 (4646400)
I1114 10:37:34.078058 12874 net.cpp:137] Memory required for data: 47064960
I1114 10:37:34.078060 12874 layer_factory.hpp:77] Creating layer norm1
I1114 10:37:34.078068 12874 net.cpp:84] Creating Layer norm1
I1114 10:37:34.078070 12874 net.cpp:406] norm1 <- conv1
I1114 10:37:34.078091 12874 net.cpp:380] norm1 -> norm1
I1114 10:37:34.078127 12874 net.cpp:122] Setting up norm1
I1114 10:37:34.078135 12874 net.cpp:129] Top shape: 16 96 55 55 (4646400)
I1114 10:37:34.078140 12874 net.cpp:137] Memory required for data: 65650560
I1114 10:37:34.078145 12874 layer_factory.hpp:77] Creating layer pool1
I1114 10:37:34.078152 12874 net.cpp:84] Creating Layer pool1
I1114 10:37:34.078158 12874 net.cpp:406] pool1 <- norm1
I1114 10:37:34.078183 12874 net.cpp:380] pool1 -> pool1
I1114 10:37:34.078227 12874 net.cpp:122] Setting up pool1
I1114 10:37:34.078236 12874 net.cpp:129] Top shape: 16 96 27 27 (1119744)
I1114 10:37:34.078241 12874 net.cpp:137] Memory required for data: 70129536
I1114 10:37:34.078245 12874 layer_factory.hpp:77] Creating layer conv2
I1114 10:37:34.078259 12874 net.cpp:84] Creating Layer conv2
I1114 10:37:34.078266 12874 net.cpp:406] conv2 <- pool1
I1114 10:37:34.078275 12874 net.cpp:380] conv2 -> conv2
I1114 10:37:34.085856 12874 net.cpp:122] Setting up conv2
I1114 10:37:34.085887 12874 net.cpp:129] Top shape: 16 256 27 27 (2985984)
I1114 10:37:34.085891 12874 net.cpp:137] Memory required for data: 82073472
I1114 10:37:34.085902 12874 layer_factory.hpp:77] Creating layer relu2
I1114 10:37:34.085912 12874 net.cpp:84] Creating Layer relu2
I1114 10:37:34.085916 12874 net.cpp:406] relu2 <- conv2
I1114 10:37:34.085922 12874 net.cpp:367] relu2 -> conv2 (in-place)
I1114 10:37:34.085928 12874 net.cpp:122] Setting up relu2
I1114 10:37:34.085935 12874 net.cpp:129] Top shape: 16 256 27 27 (2985984)
I1114 10:37:34.085938 12874 net.cpp:137] Memory required for data: 94017408
I1114 10:37:34.085942 12874 layer_factory.hpp:77] Creating layer norm2
I1114 10:37:34.085948 12874 net.cpp:84] Creating Layer norm2
I1114 10:37:34.085952 12874 net.cpp:406] norm2 <- conv2
I1114 10:37:34.085955 12874 net.cpp:380] norm2 -> norm2
I1114 10:37:34.085991 12874 net.cpp:122] Setting up norm2
I1114 10:37:34.085997 12874 net.cpp:129] Top shape: 16 256 27 27 (2985984)
I1114 10:37:34.085999 12874 net.cpp:137] Memory required for data: 105961344
I1114 10:37:34.086002 12874 layer_factory.hpp:77] Creating layer pool2
I1114 10:37:34.086007 12874 net.cpp:84] Creating Layer pool2
I1114 10:37:34.086010 12874 net.cpp:406] pool2 <- norm2
I1114 10:37:34.086014 12874 net.cpp:380] pool2 -> pool2
I1114 10:37:34.086037 12874 net.cpp:122] Setting up pool2
I1114 10:37:34.086045 12874 net.cpp:129] Top shape: 16 256 13 13 (692224)
I1114 10:37:34.086046 12874 net.cpp:137] Memory required for data: 108730240
I1114 10:37:34.086050 12874 layer_factory.hpp:77] Creating layer conv3
I1114 10:37:34.086060 12874 net.cpp:84] Creating Layer conv3
I1114 10:37:34.086062 12874 net.cpp:406] conv3 <- pool2
I1114 10:37:34.086066 12874 net.cpp:380] conv3 -> conv3
I1114 10:37:34.105948 12874 net.cpp:122] Setting up conv3
I1114 10:37:34.105981 12874 net.cpp:129] Top shape: 16 384 13 13 (1038336)
I1114 10:37:34.105984 12874 net.cpp:137] Memory required for data: 112883584
I1114 10:37:34.105994 12874 layer_factory.hpp:77] Creating layer relu3
I1114 10:37:34.106004 12874 net.cpp:84] Creating Layer relu3
I1114 10:37:34.106009 12874 net.cpp:406] relu3 <- conv3
I1114 10:37:34.106014 12874 net.cpp:367] relu3 -> conv3 (in-place)
I1114 10:37:34.106020 12874 net.cpp:122] Setting up relu3
I1114 10:37:34.106024 12874 net.cpp:129] Top shape: 16 384 13 13 (1038336)
I1114 10:37:34.106026 12874 net.cpp:137] Memory required for data: 117036928
I1114 10:37:34.106029 12874 layer_factory.hpp:77] Creating layer pool3
I1114 10:37:34.106035 12874 net.cpp:84] Creating Layer pool3
I1114 10:37:34.106037 12874 net.cpp:406] pool3 <- conv3
I1114 10:37:34.106043 12874 net.cpp:380] pool3 -> pool3
I1114 10:37:34.106072 12874 net.cpp:122] Setting up pool3
I1114 10:37:34.106082 12874 net.cpp:129] Top shape: 16 384 6 6 (221184)
I1114 10:37:34.106086 12874 net.cpp:137] Memory required for data: 117921664
I1114 10:37:34.106091 12874 layer_factory.hpp:77] Creating layer fc4
I1114 10:37:34.106103 12874 net.cpp:84] Creating Layer fc4
I1114 10:37:34.106112 12874 net.cpp:406] fc4 <- pool3
I1114 10:37:34.106118 12874 net.cpp:380] fc4 -> fc4
I1114 10:37:35.344347 12874 net.cpp:122] Setting up fc4
I1114 10:37:35.344377 12874 net.cpp:129] Top shape: 16 4096 (65536)
I1114 10:37:35.344382 12874 net.cpp:137] Memory required for data: 118183808
I1114 10:37:35.344389 12874 layer_factory.hpp:77] Creating layer relu4
I1114 10:37:35.344399 12874 net.cpp:84] Creating Layer relu4
I1114 10:37:35.344403 12874 net.cpp:406] relu4 <- fc4
I1114 10:37:35.344408 12874 net.cpp:367] relu4 -> fc4 (in-place)
I1114 10:37:35.344435 12874 net.cpp:122] Setting up relu4
I1114 10:37:35.344439 12874 net.cpp:129] Top shape: 16 4096 (65536)
I1114 10:37:35.344441 12874 net.cpp:137] Memory required for data: 118445952
I1114 10:37:35.344444 12874 layer_factory.hpp:77] Creating layer drop4
I1114 10:37:35.344451 12874 net.cpp:84] Creating Layer drop4
I1114 10:37:35.344454 12874 net.cpp:406] drop4 <- fc4
I1114 10:37:35.344457 12874 net.cpp:367] drop4 -> fc4 (in-place)
I1114 10:37:35.344485 12874 net.cpp:122] Setting up drop4
I1114 10:37:35.344489 12874 net.cpp:129] Top shape: 16 4096 (65536)
I1114 10:37:35.344496 12874 net.cpp:137] Memory required for data: 118708096
I1114 10:37:35.344498 12874 layer_factory.hpp:77] Creating layer fc5
I1114 10:37:35.344508 12874 net.cpp:84] Creating Layer fc5
I1114 10:37:35.344511 12874 net.cpp:406] fc5 <- fc4
I1114 10:37:35.344516 12874 net.cpp:380] fc5 -> fc5
I1114 10:37:37.168468 12874 net.cpp:122] Setting up fc5
I1114 10:37:37.168495 12874 net.cpp:129] Top shape: 16 16384 (262144)
I1114 10:37:37.168499 12874 net.cpp:137] Memory required for data: 119756672
I1114 10:37:37.168510 12874 layer_factory.hpp:77] Creating layer relu5
I1114 10:37:37.168519 12874 net.cpp:84] Creating Layer relu5
I1114 10:37:37.168522 12874 net.cpp:406] relu5 <- fc5
I1114 10:37:37.168529 12874 net.cpp:367] relu5 -> fc5 (in-place)
I1114 10:37:37.168536 12874 net.cpp:122] Setting up relu5
I1114 10:37:37.168540 12874 net.cpp:129] Top shape: 16 16384 (262144)
I1114 10:37:37.168542 12874 net.cpp:137] Memory required for data: 120805248
I1114 10:37:37.168545 12874 layer_factory.hpp:77] Creating layer drop5
I1114 10:37:37.168550 12874 net.cpp:84] Creating Layer drop5
I1114 10:37:37.168552 12874 net.cpp:406] drop5 <- fc5
I1114 10:37:37.168556 12874 net.cpp:367] drop5 -> fc5 (in-place)
I1114 10:37:37.168577 12874 net.cpp:122] Setting up drop5
I1114 10:37:37.168586 12874 net.cpp:129] Top shape: 16 16384 (262144)
I1114 10:37:37.168589 12874 net.cpp:137] Memory required for data: 121853824
I1114 10:37:37.168593 12874 layer_factory.hpp:77] Creating layer fc
I1114 10:37:37.168604 12874 net.cpp:84] Creating Layer fc
I1114 10:37:37.168613 12874 net.cpp:406] fc <- fc5
I1114 10:37:37.168620 12874 net.cpp:380] fc -> fc
I1114 10:37:37.171331 12874 net.cpp:122] Setting up fc
I1114 10:37:37.171361 12874 net.cpp:129] Top shape: 16 7 (112)
I1114 10:37:37.171365 12874 net.cpp:137] Memory required for data: 121854272
I1114 10:37:37.171371 12874 layer_factory.hpp:77] Creating layer fc_fc_0_split
I1114 10:37:37.171380 12874 net.cpp:84] Creating Layer fc_fc_0_split
I1114 10:37:37.171383 12874 net.cpp:406] fc_fc_0_split <- fc
I1114 10:37:37.171391 12874 net.cpp:380] fc_fc_0_split -> fc_fc_0_split_0
I1114 10:37:37.171398 12874 net.cpp:380] fc_fc_0_split -> fc_fc_0_split_1
I1114 10:37:37.171427 12874 net.cpp:122] Setting up fc_fc_0_split
I1114 10:37:37.171435 12874 net.cpp:129] Top shape: 16 7 (112)
I1114 10:37:37.171440 12874 net.cpp:129] Top shape: 16 7 (112)
I1114 10:37:37.171442 12874 net.cpp:137] Memory required for data: 121855168
I1114 10:37:37.171445 12874 layer_factory.hpp:77] Creating layer accuracy
I1114 10:37:37.171450 12874 net.cpp:84] Creating Layer accuracy
I1114 10:37:37.171452 12874 net.cpp:406] accuracy <- fc_fc_0_split_0
I1114 10:37:37.171456 12874 net.cpp:406] accuracy <- label_input_data_1_split_0
I1114 10:37:37.171459 12874 net.cpp:380] accuracy -> accuracy
…
I1114 10:37:37.172075 12874 solver.cpp:172] Creating test net (#0) specified by net file: /data6/wanghao/pattern_recognition_project/net/testnet.prototxt
I1114 10:37:37.172106 12874 net.cpp:294] The NetState phase (1) differed from the phase (0) specified by a rule in layer input_data
I1114 10:37:37.172232 12874 net.cpp:51] Initializing net from parameters: 
name: "TestNet"
state {
  phase: TEST
}
layer {
  name: "input_data"
  type: "ImageData"
  top: "data"
  top: "label"
  include {
    phase: TEST
  }
  image_data_param {
    source: "/data6/wanghao/pattern_recognition_project/list/test/list_test_label.txt"
    batch_size: 50
    shuffle: true
    new_height: 227
    new_width: 227
  }
}
layer {
  name: "conv1"
  type: "Convolution"
  bottom: "data"
  top: "conv1"
  param {
    lr_mult: 1
    decay_mult: 1
  }
  param {
    lr_mult: 2
    decay_mult: 0
  }
  convolution_param {
    num_output: 96
    kernel_size: 11
    stride: 4
    weight_filler {
      type: "gaussian"
      std: 0.01
    }
    bias_filler {
      type: "constant"
      value: 0
    }
  }
}
layer {
  name: "relu1"
  type: "ReLU"
  bottom: "conv1"
  top: "conv1"
}
layer {
  name: "norm1"
  type: "LRN"
  bottom: "conv1"
  top: "norm1"
  lrn_param {
    local_size: 5
    alpha: 0.0001
    beta: 0.75
  }
}
layer {
  name: "pool1"
  type: "Pooling"
  bottom: "norm1"
  top: "pool1"
  pooling_param {
    pool: MAX
    kernel_size: 3
    stride: 2
  }
}
layer {
  name: "conv2"
  type: "Convolution"
  bottom: "pool1"
  top: "conv2"
  param {
    lr_mult: 1
    decay_mult: 1
  }
  param {
    lr_mult: 2
    decay_mult: 0
  }
  convolution_param {
    num_output: 256
    pad: 2
    kernel_size: 5
    group: 2
    weight_filler {
      type: "gaussian"
      std: 0.01
    }
    bias_filler {
      type: "constant"
      value: 0.1
    }
  }
}
layer {
  name: "relu2"
  type: "ReLU"
  bottom: "conv2"
  top: "conv2"
}
layer {
  name: "norm2"
  type: "LRN"
  bottom: "conv2"
  top: "norm2"
  lrn_param {
    local_size: 5
    alpha: 0.0001
    beta: 0.75
  }
}
layer {
  name: "pool2"
  type: "Pooling"
  bottom: "norm2"
  top: "pool2"
  pooling_param {
    pool: MAX
    kernel_size: 3
    stride: 2
  }
}
layer {
  name: "conv3"
  type: "Convolution"
  bottom: "pool2"
  top: "conv3"
  param {
    lr_mult: 1
    decay_mult: 1
  }
  param {
    lr_mult: 2
    decay_mult: 0
  }
  convolution_param {
    num_output: 384
    pad: 1
    kernel_size: 3
    weight_filler {
      type: "gaussian"
      std: 0.01
    }
    bias_filler {
      type: "constant"
      value: 0
    }
  }
}
layer {
  name: "relu3"
  type: "ReLU"
  bottom: "conv3"
  top: "conv3"
}
layer {
  name: "pool3"
  type: "Pooling"
  bottom: "conv3"
  top: "pool3"
  pooling_param {
    pool: MAX
    kernel_size: 3
    stride: 2
  }
}
layer {
  name: "fc4"
  type: "InnerProduct"
  bottom: "pool3"
  top: "fc4"
  param {
    lr_mult: 1
    decay_mult: 1
  }
  param {
    lr_mult: 2
    decay_mult: 0
  }
  inner_product_param {
    num_output: 4096
    weight_filler {
      type: "gaussian"
      std: 0.005
    }
    bias_filler {
      type: "constant"
      value: 0.1
    }
  }
}
layer {
  name: "relu4"
  type: "ReLU"
  bottom: "fc4"
  top: "fc4"
}
layer {
  name: "drop4"
  type: "Dropout"
  bottom: "fc4"
  top: "fc4"
  dropout_param {
    dropout_ratio: 0.5
  }
}
layer {
  name: "fc5"
  type: "InnerProduct"
  bottom: "fc4"
  top: "fc5"
  param {
    lr_mult: 1
    decay_mult: 1
  }
  param {
    lr_mult: 2
    decay_mult: 0
  }
  inner_product_param {
    num_output: 16384
    weight_filler {
      type: "gaussian"
      std: 0.005
    }
    bias_filler {
      type: "constant"
      value: 0.1
    }
  }
}
layer {
  name: "relu5"
  type: "ReLU"
  bottom: "fc5"
  top: "fc5"
}
layer {
  name: "drop5"
  type: "Dropout"
  bottom: "fc5"
  top: "fc5"
  dropout_param {
    dropout_ratio: 0.5
  }
}
layer {
  name: "fc"
  type: "InnerProduct"
  bottom: "fc5"
  top: "fc"
  param {
    lr_mult: 1
    decay_mult: 1
  }
  param {
    lr_mult: 2
    decay_mult: 0
  }
  inner_product_param {
    num_output: 7
    weight_filler {
      type: "gaussian"
      std: 0.01
    }
    bias_filler {
      type: "constant"
      value: 0
    }
  }
}
layer {
  name: "accuracy"
  type: "Accuracy"
  bottom: "fc"
  bottom: "label"
  top: "accuracy"
}
layer {
  name: "loss"
  type: "SoftmaxWithLoss"
  bottom: "fc"
  bottom: "label"
  top: "loss"
}
I1114 10:37:37.172312 12874 layer_factory.hpp:77] Creating layer input_data
I1114 10:37:37.172327 12874 net.cpp:84] Creating Layer input_data
I1114 10:37:37.172330 12874 net.cpp:380] input_data -> data
I1114 10:37:37.172336 12874 net.cpp:380] input_data -> label
I1114 10:37:37.172343 12874 image_data_layer.cpp:38] Opening file /data6/wanghao/pattern_recognition_project/list/test/list_test_label.txt
I1114 10:37:37.184012 12874 image_data_layer.cpp:53] Shuffling data
I1114 10:37:37.184079 12874 image_data_layer.cpp:63] A total of 754 images.
I1114 10:37:37.210168 12874 image_data_layer.cpp:90] output data size: 50,3,227,227
I1114 10:37:37.280333 12874 net.cpp:122] Setting up input_data
I1114 10:37:37.280370 12874 net.cpp:129] Top shape: 50 3 227 227 (7729350)
I1114 10:37:37.280378 12874 net.cpp:129] Top shape: 50 (50)
I1114 10:37:37.280383 12874 net.cpp:137] Memory required for data: 30917600
I1114 10:37:37.280390 12874 layer_factory.hpp:77] Creating layer label_input_data_1_split
I1114 10:37:37.280407 12874 net.cpp:84] Creating Layer label_input_data_1_split
I1114 10:37:37.280443 12874 net.cpp:406] label_input_data_1_split <- label
I1114 10:37:37.280473 12874 net.cpp:380] label_input_data_1_split -> label_input_data_1_split_0
I1114 10:37:37.280491 12874 net.cpp:380] label_input_data_1_split -> label_input_data_1_split_1
I1114 10:37:37.280617 12874 net.cpp:122] Setting up label_input_data_1_split
I1114 10:37:37.280629 12874 net.cpp:129] Top shape: 50 (50)
I1114 10:37:37.280633 12874 net.cpp:129] Top shape: 50 (50)
I1114 10:37:37.280637 12874 net.cpp:137] Memory required for data: 30918000
I1114 10:37:37.280658 12874 layer_factory.hpp:77] Creating layer conv1
I1114 10:37:37.280679 12874 net.cpp:84] Creating Layer conv1
I1114 10:37:37.280689 12874 net.cpp:406] conv1 <- data
I1114 10:37:37.280699 12874 net.cpp:380] conv1 -> conv1
I1114 10:37:37.281913 12874 net.cpp:122] Setting up conv1
I1114 10:37:37.281934 12874 net.cpp:129] Top shape: 50 96 55 55 (14520000)
I1114 10:37:37.281937 12874 net.cpp:137] Memory required for data: 88998000
I1114 10:37:37.281947 12874 layer_factory.hpp:77] Creating layer relu1
I1114 10:37:37.281955 12874 net.cpp:84] Creating Layer relu1
I1114 10:37:37.281960 12874 net.cpp:406] relu1 <- conv1
I1114 10:37:37.281965 12874 net.cpp:367] relu1 -> conv1 (in-place)
I1114 10:37:37.281971 12874 net.cpp:122] Setting up relu1
I1114 10:37:37.281975 12874 net.cpp:129] Top shape: 50 96 55 55 (14520000)
I1114 10:37:37.281978 12874 net.cpp:137] Memory required for data: 147078000
I1114 10:37:37.281982 12874 layer_factory.hpp:77] Creating layer norm1
I1114 10:37:37.281989 12874 net.cpp:84] Creating Layer norm1
I1114 10:37:37.281993 12874 net.cpp:406] norm1 <- conv1
I1114 10:37:37.281998 12874 net.cpp:380] norm1 -> norm1
I1114 10:37:37.282066 12874 net.cpp:122] Setting up norm1
I1114 10:37:37.282076 12874 net.cpp:129] Top shape: 50 96 55 55 (14520000)
I1114 10:37:37.282079 12874 net.cpp:137] Memory required for data: 205158000
I1114 10:37:37.282083 12874 layer_factory.hpp:77] Creating layer pool1
I1114 10:37:37.282089 12874 net.cpp:84] Creating Layer pool1
I1114 10:37:37.282096 12874 net.cpp:406] pool1 <- norm1
I1114 10:37:37.282104 12874 net.cpp:380] pool1 -> pool1
I1114 10:37:37.282152 12874 net.cpp:122] Setting up pool1
I1114 10:37:37.282165 12874 net.cpp:129] Top shape: 50 96 27 27 (3499200)
I1114 10:37:37.282169 12874 net.cpp:137] Memory required for data: 219154800
I1114 10:37:37.282174 12874 layer_factory.hpp:77] Creating layer conv2
I1114 10:37:37.282192 12874 net.cpp:84] Creating Layer conv2
I1114 10:37:37.282202 12874 net.cpp:406] conv2 <- pool1
I1114 10:37:37.282212 12874 net.cpp:380] conv2 -> conv2
I1114 10:37:37.291235 12874 net.cpp:122] Setting up conv2
I1114 10:37:37.291267 12874 net.cpp:129] Top shape: 50 256 27 27 (9331200)
I1114 10:37:37.291271 12874 net.cpp:137] Memory required for data: 256479600
I1114 10:37:37.291282 12874 layer_factory.hpp:77] Creating layer relu2
I1114 10:37:37.291294 12874 net.cpp:84] Creating Layer relu2
I1114 10:37:37.291301 12874 net.cpp:406] relu2 <- conv2
I1114 10:37:37.291309 12874 net.cpp:367] relu2 -> conv2 (in-place)
I1114 10:37:37.291321 12874 net.cpp:122] Setting up relu2
I1114 10:37:37.291326 12874 net.cpp:129] Top shape: 50 256 27 27 (9331200)
I1114 10:37:37.291330 12874 net.cpp:137] Memory required for data: 293804400
I1114 10:37:37.291335 12874 layer_factory.hpp:77] Creating layer norm2
I1114 10:37:37.291347 12874 net.cpp:84] Creating Layer norm2
I1114 10:37:37.291353 12874 net.cpp:406] norm2 <- conv2
I1114 10:37:37.291360 12874 net.cpp:380] norm2 -> norm2
I1114 10:37:37.291412 12874 net.cpp:122] Setting up norm2
I1114 10:37:37.291422 12874 net.cpp:129] Top shape: 50 256 27 27 (9331200)
I1114 10:37:37.291427 12874 net.cpp:137] Memory required for data: 331129200
I1114 10:37:37.291432 12874 layer_factory.hpp:77] Creating layer pool2
I1114 10:37:37.291441 12874 net.cpp:84] Creating Layer pool2
I1114 10:37:37.291450 12874 net.cpp:406] pool2 <- norm2
I1114 10:37:37.291458 12874 net.cpp:380] pool2 -> pool2
I1114 10:37:37.291497 12874 net.cpp:122] Setting up pool2
I1114 10:37:37.291508 12874 net.cpp:129] Top shape: 50 256 13 13 (2163200)
I1114 10:37:37.291513 12874 net.cpp:137] Memory required for data: 339782000
I1114 10:37:37.291518 12874 layer_factory.hpp:77] Creating layer conv3
I1114 10:37:37.291532 12874 net.cpp:84] Creating Layer conv3
I1114 10:37:37.291539 12874 net.cpp:406] conv3 <- pool2
I1114 10:37:37.291548 12874 net.cpp:380] conv3 -> conv3
I1114 10:37:37.317317 12874 net.cpp:122] Setting up conv3
I1114 10:37:37.317351 12874 net.cpp:129] Top shape: 50 384 13 13 (3244800)
I1114 10:37:37.317355 12874 net.cpp:137] Memory required for data: 352761200
I1114 10:37:37.317387 12874 layer_factory.hpp:77] Creating layer relu3
I1114 10:37:37.317399 12874 net.cpp:84] Creating Layer relu3
I1114 10:37:37.317402 12874 net.cpp:406] relu3 <- conv3
I1114 10:37:37.317407 12874 net.cpp:367] relu3 -> conv3 (in-place)
I1114 10:37:37.317415 12874 net.cpp:122] Setting up relu3
I1114 10:37:37.317420 12874 net.cpp:129] Top shape: 50 384 13 13 (3244800)
I1114 10:37:37.317422 12874 net.cpp:137] Memory required for data: 365740400
I1114 10:37:37.317425 12874 layer_factory.hpp:77] Creating layer pool3
I1114 10:37:37.317431 12874 net.cpp:84] Creating Layer pool3
I1114 10:37:37.317435 12874 net.cpp:406] pool3 <- conv3
I1114 10:37:37.317438 12874 net.cpp:380] pool3 -> pool3
I1114 10:37:37.317484 12874 net.cpp:122] Setting up pool3
I1114 10:37:37.317497 12874 net.cpp:129] Top shape: 50 384 6 6 (691200)
I1114 10:37:37.317502 12874 net.cpp:137] Memory required for data: 368505200
I1114 10:37:37.317507 12874 layer_factory.hpp:77] Creating layer fc4
I1114 10:37:37.317517 12874 net.cpp:84] Creating Layer fc4
I1114 10:37:37.317530 12874 net.cpp:406] fc4 <- pool3
I1114 10:37:37.317540 12874 net.cpp:380] fc4 -> fc4
I1114 10:37:39.072295 12874 net.cpp:122] Setting up fc4
I1114 10:37:39.072346 12874 net.cpp:129] Top shape: 50 4096 (204800)
I1114 10:37:39.072355 12874 net.cpp:137] Memory required for data: 369324400
I1114 10:37:39.072373 12874 layer_factory.hpp:77] Creating layer relu4
I1114 10:37:39.072402 12874 net.cpp:84] Creating Layer relu4
I1114 10:37:39.072414 12874 net.cpp:406] relu4 <- fc4
I1114 10:37:39.072441 12874 net.cpp:367] relu4 -> fc4 (in-place)
I1114 10:37:39.072471 12874 net.cpp:122] Setting up relu4
I1114 10:37:39.072486 12874 net.cpp:129] Top shape: 50 4096 (204800)
I1114 10:37:39.072499 12874 net.cpp:137] Memory required for data: 370143600
I1114 10:37:39.072512 12874 layer_factory.hpp:77] Creating layer drop4
I1114 10:37:39.072535 12874 net.cpp:84] Creating Layer drop4
I1114 10:37:39.072549 12874 net.cpp:406] drop4 <- fc4
I1114 10:37:39.072571 12874 net.cpp:367] drop4 -> fc4 (in-place)
I1114 10:37:39.072638 12874 net.cpp:122] Setting up drop4
I1114 10:37:39.072654 12874 net.cpp:129] Top shape: 50 4096 (204800)
I1114 10:37:39.072665 12874 net.cpp:137] Memory required for data: 370962800
I1114 10:37:39.072679 12874 layer_factory.hpp:77] Creating layer fc5
I1114 10:37:39.072710 12874 net.cpp:84] Creating Layer fc5
I1114 10:37:39.072718 12874 net.cpp:406] fc5 <- fc4
I1114 10:37:39.072731 12874 net.cpp:380] fc5 -> fc5
I1114 10:37:41.670855 12874 net.cpp:122] Setting up fc5
I1114 10:37:41.670899 12874 net.cpp:129] Top shape: 50 16384 (819200)
I1114 10:37:41.670904 12874 net.cpp:137] Memory required for data: 374239600
I1114 10:37:41.670920 12874 layer_factory.hpp:77] Creating layer relu5
I1114 10:37:41.670935 12874 net.cpp:84] Creating Layer relu5
I1114 10:37:41.670949 12874 net.cpp:406] relu5 <- fc5
I1114 10:37:41.670956 12874 net.cpp:367] relu5 -> fc5 (in-place)
I1114 10:37:41.670966 12874 net.cpp:122] Setting up relu5
I1114 10:37:41.670972 12874 net.cpp:129] Top shape: 50 16384 (819200)
I1114 10:37:41.670976 12874 net.cpp:137] Memory required for data: 377516400
I1114 10:37:41.670980 12874 layer_factory.hpp:77] Creating layer drop5
I1114 10:37:41.670992 12874 net.cpp:84] Creating Layer drop5
I1114 10:37:41.671003 12874 net.cpp:406] drop5 <- fc5
I1114 10:37:41.671010 12874 net.cpp:367] drop5 -> fc5 (in-place)
I1114 10:37:41.671048 12874 net.cpp:122] Setting up drop5
I1114 10:37:41.671058 12874 net.cpp:129] Top shape: 50 16384 (819200)
I1114 10:37:41.671061 12874 net.cpp:137] Memory required for data: 380793200
I1114 10:37:41.671066 12874 layer_factory.hpp:77] Creating layer fc
I1114 10:37:41.671075 12874 net.cpp:84] Creating Layer fc
I1114 10:37:41.671082 12874 net.cpp:406] fc <- fc5
I1114 10:37:41.671090 12874 net.cpp:380] fc -> fc
I1114 10:37:41.674121 12874 net.cpp:122] Setting up fc
I1114 10:37:41.674154 12874 net.cpp:129] Top shape: 50 7 (350)
I1114 10:37:41.674156 12874 net.cpp:137] Memory required for data: 380794600
I1114 10:37:41.674163 12874 layer_factory.hpp:77] Creating layer fc_fc_0_split
I1114 10:37:41.674190 12874 net.cpp:84] Creating Layer fc_fc_0_split
I1114 10:37:41.674198 12874 net.cpp:406] fc_fc_0_split <- fc
I1114 10:37:41.674206 12874 net.cpp:380] fc_fc_0_split -> fc_fc_0_split_0
I1114 10:37:41.674213 12874 net.cpp:380] fc_fc_0_split -> fc_fc_0_split_1
I1114 10:37:41.674247 12874 net.cpp:122] Setting up fc_fc_0_split
I1114 10:37:41.674255 12874 net.cpp:129] Top shape: 50 7 (350)
I1114 10:37:41.674259 12874 net.cpp:129] Top shape: 50 7 (350)
I1114 10:37:41.674262 12874 net.cpp:137] Memory required for data: 380797400
I1114 10:37:41.674264 12874 layer_factory.hpp:77] Creating layer accuracy
I1114 10:37:41.674270 12874 net.cpp:84] Creating Layer accuracy
I1114 10:37:41.674274 12874 net.cpp:406] accuracy <- fc_fc_0_split_0
I1114 10:37:41.674278 12874 net.cpp:406] accuracy <- label_input_data_1_split_0
I1114 10:37:41.674283 12874 net.cpp:380] accuracy -> accuracy
…
